Experiments/PytorchMlpMinst/model_state.pt (torch, 475031 bytes, 6 tensors)

features.0.weight f4 [128, 784]
000000 ac c5 21 00 56 d8 92 80 c8 64 49 80 5f df 37 00
       3.101483e-39 -1.3485589e-38 -6.740145e-39 5.131083e-39
000010 39 32 6e 80 b1 dc 4a 80 36 df 79 80 f0 c4 83 80
       -1.0119921e-38 -6.874996e-39 -1.1192168e-38 -1.2101098e-38
000020 ee 8e 12 00 7e c8 42 80 89 64 00 00 81 16 41 00
       1.704312e-39 -6.133066e-39 3.6065e-41 5.97738e-39
000030 9f 35 5f 00 bc ff 03 00 16 1a 33 00 68 34 0c 00
       8.743608e-39 3.67247e-40 4.692968e-39 1.120826e-39
000040 8e da 0d 00 8b 0c 0f 00 61 42 60 00 1b 84 57 80
       1.272264e-39 1.382032e-39 8.84002e-39 -8.037079e-39
000050 32 f9 5c 00 ca 2e 5c 80 3c a7 48 80 14 0e 1c 80
       8.53826e-39 -8.46565e-39 -6.672148e-39 -2.576444e-39
000060 fd da 12 00 29 74 74 00 2c 56 29 80 11 af 0d 00
       1.731597e-39 1.0694588e-38 -3.796168e-39 1.256663e-39
000070 79 52 3e 00 9d 15 0f 80 5c b6 23 00 0b 6c 3a 00
       5.723386e-39 -1.385286e-39 3.27966e-39 5.365217e-39
000080 25 5a 14 00 a2 03 2d 80 ff c8 59 3f 15 96 a4 3f
       1.869048e-39 -4.1339e-39 0.8507232 1.2858301
000090 bc 28 2c 32 ab c9 fe 32 32 b4 3c 41 92 f9 3e 41
       1.002098e-08 2.96612e-08 11.793993 11.93593
0000a0 ae 9c 58 40 fa 18 8e 40 af d9 ec 40 c8 db 03 41
       3.384563 4.440549 7.4015727 8.241158
0000b0 29 9f ff 3e 8c 5e a9 3e 60 ce 01 3e d8 9e 0a 40
       0.49926117 0.33079946 0.12676382 2.165945
0000c0 c5 a5 3e 41 10 84 d3 3f a2 89 bc 3c 2d eb f5 3a
       11.915471 1.6524677 0.023014847 0.0018762104
0000d0 a1 f1 22 80 5b c2 60 80 4e 93 89 80 db c8 11 80
       -3.209087e-39 -8.885929e-39 -1.2634306e-38 -1.633257e-39
0000e0 05 95 4e 00 a2 70 99 81 53 3a 6b 36 06 5d 09 80
       7.216627e-39 -5.6364944e-38 3.5051678e-06 -8.5989e-40
0000f0 41 a8 2b 3f f9 ef 7c 00 23 57 6e bf 9e f1 25 c0
       0.6705361 1.1473687e-38 -0.9310171 -2.5928721
000100 ac b5 3c 41 b8 eb 3e 41 61 c1 40 41 18 09 41 41
       11.7943535 11.9325485 12.047212 12.06472
000110 e5 cb 42 41 82 10 43 41 07 81 42 41 74 4c 42 41
       12.174779 12.19153 12.156501 12.143665
000120 9f 86 42 41 58 bb 41 41 f0 a5 41 41 e6 54 41 41
       12.1578665 12.108238 12.103012 12.083227
000130 6c 86 40 41 75 01 40 41 5e 09 3f 41 4f 5b 3f 41
       12.032818 12.000356 11.939787 11.959792
000140 bd 81 13 41 c4 97 fa 1f 20 58 06 80 3e d7 71 80
       9.219174 1.06130194e-19 -5.82626e-40 -1.0454625e-38
000150 79 03 04 00 8c 26 56 00 20 8f 01 37 09 d3 cd 34
       3.68588e-40 7.91168e-39 7.722323e-06 3.8337774e-07
000160 de 32 ac 3e b6 49 3d 41 33 30 3e 41 4f 96 86 c0
       0.3363256 11.830496 11.886767 -4.205848
000170 a5 08 3c c1 c1 f7 3a c1 28 88 16 41 2a e7 3b 41
       -11.7521105 -11.685487 9.408241 11.743937
000180 3d 8e 41 41 26 32 42 41 b8 bb 42 41 06 45 42 41
       12.097226 12.137243 12.17083 12.141851
000190 19 9a 42 41 fa f9 41 41 f7 48 42 41 07 da 42 41
       12.1626215 12.123529 12.142814 12.178229
0001a0 6b f3 42 41 c5 98 41 41 ee c5 41 41 97 69 41 41
       12.184428 12.099797 12.110823 12.088279
0001b0 84 cd 40 41 dc bb bd 27 b7 20 03 00 9c ac 75 00
       12.050175 5.2661715e-15 2.87242e-40 1.0806674e-38
0001c0 f8 88 90 80 78 72 5d 80 78 ff 13 00 ea 17 b5 3d
       -1.3273447e-38 -8.581765e-39 1.83652e-39 0.08842452
0001d0 49 df ab 3e e2 78 3d 41 4d 01 3c 41 6b 53 40 c1
       0.3356879 11.842012 11.750318 -12.020366
0001e0 c5 e0 3e c1 98 f8 09 41 e3 e8 0f 41 f8 47 15 41
       -11.929875 8.623192 8.994357 9.3300705
0001f0 3f 5b 21 41 e1 e0 2a 41 e4 d6 17 41 49 0a 11 41
       10.084777 10.679902 9.489964 9.065011
000200 1f e8 39 41 fe d5 3e 41 0e ef 43 41 ae 5c 44 41
       11.61917 11.927244 12.245863 12.272627
000210 57 b3 43 41 e1 a6 43 41 79 4f 43 41 bb 58 42 41
       12.231284 12.228242 12.2069025 12.146663
000220 bb fd 42 41 af 52 ac be 30 88 c1 3c c0 97 a1 87
       12.186946 -0.33656833 0.02362451 -2.4313778e-34
000230 fa df 4f 80 86 34 62 00 68 12 9b 32 b9 65 f9 be
       -7.335352e-39 9.01872e-39 1.8052745e-08 -0.4871042
000240 e8 df d7 3f 9d 77 3c 41 66 5a 3e c1 5c 56 40 c1
       1.6865206 11.779202 -11.89707 -12.021084
000250 2b 43 3f c1 3f 74 0b 41 95 7d 11 41 ec 7e 16 41
       -11.953898 8.71588 9.09316 9.405987
000260 e3 fd 1b 41 46 7a 31 c1 e1 64 3a c1 0d 3c 40 c1
       9.749484 -11.092352 -11.649629 -12.014661
000270 36 05 3c c1 c9 6a 3c 41 9c 55 40 41 80 86 42 41
       -11.751272 11.776071 12.020901 12.157837
000280 46 bb 41 41 9b fb 40 41 35 8f 38 41 77 e6 42 41
       12.108221 12.061427 11.534963 12.181266
000290 63 47 43 41 0c 28 45 c0 44 1d 8c c0 f6 cd 99 bf
       12.204928 -3.0805693 -4.3785725 -1.2015979
0002a0 48 03 14 00 90 33 56 80 87 6f d8 3e 79 b4 2d c1
       1.837887e-39 -7.91635e-39 0.4227259 -10.856561
0002b0 7b 15 3f c1 91 bf 3e c1 b1 42 42 c1 63 db 41 c1
       -11.942744 -11.921769 -12.141282 -12.116061
0002c0 3f df 3e c1 3f 88 18 41 f0 59 1e 41 c3 1f 1a 41
       -11.929503 9.533263 9.896957 9.632754
0002d0 32 35 01 41 10 d0 41 c1 74 28 41 c1 ab dd 3d c1
       8.075487 -12.1132965 -12.072376 -11.866618
0002e0 a0 78 27 41 06 c3 2f 41 59 dc 2c 41 c0 04 31 41
       10.466949 10.985113 10.803796 11.06366
0002f0 da 9c 10 41 c7 50 10 41 9c 6a 23 41 d8 ad 2c 41
       9.038294 9.019721 10.213528 10.792442
000300 40 ae 23 41 65 00 a1 c0 42 2b b2 bf 55 94 a2 be
       10.2300415 -5.031298 -1.3919451 -0.31753793
000310 88 fc 07 80 5a 13 47 00 5a d6 91 bc 91 90 2a c1
       -7.3344e-40 6.527262e-39 -0.017802406 -10.660295
000320 a1 5e 40 c1 28 dc 3f c1 22 9e 3f c1 56 41 38 c1
       -12.023103 -11.991249 -11.976107 -11.515951
000330 af ab 36 c1 83 80 25 41 22 bb 3d 41 20 1f 1d 41
       -11.416915 10.343875 11.858187 9.820099
000340 94 8a 14 41 66 87 11 41 e1 a6 10 41 bf fb 2f 41
       9.283833 9.095556 9.040742 10.998961
000350 02 b7 2e 41 93 59 26 41 b6 72 11 41 02 4e 0a 41
       10.91968 10.396869 9.090506 8.644045
000360 46 f4 de 40 b2 b9 33 c1 4a 41 12 41 ee 33 26 41
       6.9673185 -11.232836 9.14094 10.387678
000370 f6 d0 14 41 b4 6a 3d 41 b2 84 3d c0 6b dc 32 3f
       9.301016 11.838551 -2.961224 0.6986758
000380 1e aa 0a 80 a4 53 3c 80 2b 53 bb bd 71 e4 91 bf
       -9.79382e-40 -5.540134e-39 -0.091467224 -1.139784
000390 fa 12 fe 40 0c b9 02 41 b5 1e 07 41 f5 94 07 41
       7.9398165 8.170177 8.444997 8.473866
0003a0 e4 c4 0c 41 ae a2 3b 41 65 87 3d 41 33 2c 1c 41
       8.798069 11.727217 11.845555 9.760791
0003b0 7e 49 1a 41 6b 13 36 41 b6 b4 34 41 91 34 32 41
       9.642942 11.379741 11.294119 11.137834
0003c0 b5 98 33 41 d3 65 19 41 89 ff 0c 41 af 38 03 41
       11.224782 9.587359 8.8123865 8.201339
0003d0 c4 2e 3f c1 aa 5e 39 c1 d6 91 31 c1 40 98 06 c1
       -11.948917 -11.585611 -11.0981045 -8.41217
0003e0 8a 94 3e 41 9e fc 39 41 d4 a5 3f c0 50 98 8f bd
       11.911264 11.624174 -2.9944963 -0.07011473
0003f0 7f 7c 23 00 e3 5f 05 3f 09 bd 02 3f e9 75 03 41
       3.258903e-39 0.52099437 0.51069695 8.216287

features.0.bias f4 [128]
000000 2d f2 2c 41 26 c6 1d 41 ee c4 b0 c0 8f 6e 3b c1
       10.809125 9.860876 -5.5240393 -11.714492
000010 c2 b4 14 c1 3d b8 3b c1 35 6e 2e c1 7a 65 3f c1
       -9.29413 -11.73248 -10.901906 -11.962275
000020 46 7a 31 c1 1d e0 d7 c0 d1 da 3b c1 15 cb 3a 41
       -11.092352 -6.7461076 -11.740922 11.674581
000030 26 1f 28 41 00 4b 34 c1 bb 29 41 c1 d8 53 b1 c0
       10.507605 -11.268311 -12.072688 -5.541485
000040 94 50 19 c1 40 7c 38 c1 7a ac 27 c1 38 87 3e 41
       -9.582172 -11.530334 -10.479609 11.908012
000050 b9 18 40 c1 9d a9 cc c0 fa 5f 03 41 23 03 d2 c0
       -12.006036 -6.3957047 8.210932 -6.562883
000060 8d cf 25 41 0c 90 1c c0 bb 0d 36 c1 d1 cc 37 41
       10.363172 -2.446292 -11.378352 11.487504
000070 1a 8a 08 c1 60 af 27 41 17 56 2e c1 50 30 2d c1
       -8.533716 10.480316 -10.896018 -10.824295
000080 1f 22 43 41 f5 bb 24 c1 17 87 37 41 a7 57 3e c1
       12.19583 -10.295888 11.470481 -11.8963995
000090 c5 1e bc c0 d0 bc 05 41 50 74 41 c1 45 87 3e c1
       -5.878756 8.358597 -12.090897 -11.908025
0000a0 70 cd 2c c1 4d 0e 1d 41 2a 63 21 c1 90 0b 12 c1
       -10.800156 9.815991 -10.08671 -9.127823
0000b0 e6 57 40 c1 f0 d8 40 41 59 24 21 c1 b9 ac 26 41
       -12.02146 12.052963 -10.071374 10.417169
0000c0 22 f5 2f c1 8e c4 2d c1 fd e6 1b c1 be f1 34 c1
       -10.997347 -10.860487 -9.743894 -11.309019
0000d0 c8 af 2c c1 3b 67 24 41 c3 d1 24 c1 20 90 86 c0
       -10.792915 10.275203 -10.301211 -4.2050934
0000e0 50 c6 2e c1 ec 28 3f c1 dc 33 24 c1 a0 6b 2a 41
       -10.923416 -11.947491 -10.262661 10.651276
0000f0 73 f3 34 41 5f a4 25 41 c2 3b 39 c1 21 82 3b c1
       11.309436 10.35263 -11.577089 -11.71927
000100 10 9c 28 c1 3d c5 40 c1 7b 08 33 c1 ab cf 3e c1
       -10.538101 -12.048154 -11.18957 -11.9257
000110 78 5e 2c c1 35 c5 06 41 da 72 38 41 e3 28 14 c1
       -10.773064 8.423146 11.52804 -9.259982
000120 3e fe 30 c1 14 df 2a c1 72 72 34 41 40 30 3c c1
       -11.062071 -10.679462 11.277941 -11.76178
000130 24 c1 1b c1 e8 b5 2a c1 aa fd 08 c1 03 af 12 c1
       -9.734653 -10.669411 -8.56193 -9.167727
000140 4f 34 35 c1 0c 8c 2b 41 0e 90 2b c1 d5 76 3f c1
       -11.325271 10.721691 -10.72267 -11.966512
000150 28 db 40 c1 46 68 24 c1 92 82 3e c1 ba b0 39 c1
       -12.053505 -10.275457 -11.9068775 -11.605646
000160 8d 11 3e c1 38 e5 3e c1 cf b5 3e c1 01 94 37 c1
       -11.879285 -11.930962 -11.919387 -11.473634
000170 b4 a9 36 41 c4 4e 37 c1 d1 a2 f5 c0 c2 23 39 c1
       11.416431 -11.45673 -7.676125 -11.57123
000180 4f 58 3d c1 cc 6a 13 c1 ea bb 7c c0 5a b4 3d c1
       -11.83406 -9.213573 -3.9489694 -11.856531
000190 99 d6 18 41 27 0e 3f c1 84 28 40 c1 15 3f 2e 41
       9.552392 -11.940955 -12.0098915 10.890401
0001a0 cd 7d 28 c1 8b ea 40 c1 bc dd 2c 41 28 cc 3c c1
       -10.530713 -12.057261 10.804134 -11.799843
0001b0 08 79 3b c1 19 4a 3c c1 78 8e 3e c1 0f 92 06 c1
       -11.717049 -11.76809 -11.909782 -8.410659
0001c0 69 db 3f c1 14 6b 40 41 6f ea 41 41 fe f8 40 41
       -11.991067 12.026142 12.119735 12.060789
0001d0 6e 4e 02 c1 14 ff 3e c1 aa 19 3d c1 54 14 18 41
       -8.144148 -11.937275 -11.818766 9.504963
0001e0 a4 76 21 c1 9f d5 26 c1 b1 d9 3b c1 9e 35 30 c1
       -10.091465 -10.427154 -11.740647 -11.01309
0001f0 ff 34 12 41 41 82 1e c1 57 62 40 c1 b1 77 19 c1
       9.1379385 -9.9068 -12.024009 -9.591722

features.2.weight f4 [128, 128]
000000 e3 89 c9 3e 99 b7 5f bf 2c b3 03 c0 8a ec 1e c0
       0.39363012 -0.8738952 -2.0578108 -2.4831872
000010 44 9c 54 bf 53 0e 3a c0 66 eb e7 bf 07 25 ca 3e
       -0.8305094 -2.9071243 -1.8118713 0.39481375
000020 dc 6d 01 c1 02 08 06 3f 28 52 6e 3f 63 e7 c7 c0
       -8.089321 0.5235597 0.9309411 -6.2469954
000030 5f 91 af be 96 e7 ce 3d 8e df 81 c0 4b d9 37 3e
       -0.34290597 0.10102765 -4.0585394 0.17953984
000040 b2 5b e9 bf fb 46 19 c1 64 3f be bf 0a 1c d2 c0
       -1.8231108 -9.579829 -1.4863095 -6.5659227
000050 47 03 f3 3f c9 3f 20 c0 88 e2 55 be 7f f4 4b 3d
       1.8985375 -2.5038931 -0.20887196 0.049793717
000060 0e 85 69 3e 8d 2b 31 3e 9a bd fe be a8 48 f4 c0
       0.22804663 0.1730177 -0.4975403 -7.633869
000070 c5 26 12 c0 77 b0 17 bf e7 d4 7b 3e f1 3d 9e bf
       -2.2836163 -0.5925364 0.24592935 -1.2362653
000080 81 59 53 c0 7a a3 f8 bf b5 19 2b c1 9f b9 fc 3e
       -3.302338 -1.9424889 -10.693776 0.49360368
000090 7f e5 ea bf bd 75 5d c0 2b b6 20 c0 4b ba 45 bf
       -1.8351287 -3.4603112 -2.5111187 -0.77237386
0000a0 da 6a da bf 49 bf af bf 4e d3 55 c0 89 34 15 c0
       -1.7063859 -1.3730251 -3.341022 -2.3313315
0000b0 0d 31 88 3e 2c 3b fb bf 68 04 fe 3e 06 68 ef 3f
       0.26599923 -1.9627433 0.49612737 1.870362
0000c0 a7 9b 4a c0 75 c9 c3 bf 23 c3 31 c0 46 d1 06 3f
       -3.1657503 -1.5295855 -2.7775352 0.52663076
0000d0 8b 59 ee be 51 dc 4c c0 99 7c cc c0 f5 3d 5e be
       -0.4655269 -3.200947 -6.3902097 -0.21703322
0000e0 02 56 55 3e fb f7 d7 c0 40 0f 54 c0 2e 88 9a bd
       0.2083359 -6.749021 -3.3134308 -0.075455055
0000f0 4b c8 7b c0 a6 de 3c c0 69 7e 59 be 1c 30 d4 bf
       -3.9341 -2.9510894 -0.21239628 -1.6577182
000100 79 1d 1f 3e 02 cb cb 3f 69 87 8f be 32 a2 14 c0
       0.15538587 1.5921328 -0.28032997 -2.3223996
000110 0f 78 f2 c0 57 9d ae 3e a9 5a 44 c0 00 60 e5 bf
       -7.5771556 0.34104416 -3.0680335 -1.7919922
000120 ee 86 e6 c0 f9 38 9c bf 77 69 ab c0 73 51 4a c0
       -7.203971 -1.2204887 -5.356624 -3.1612213
000130 4d be 4f bf c8 b2 1b 40 57 c8 ad be 18 ff c5 be
       -0.8114975 2.432787 -0.3394191 -0.38671184
000140 d4 df 24 c0 ce 8d 05 c0 ab 52 fc bf f1 a5 85 3f
       -2.5761614 -2.08678 -1.9712728 1.0441266
000150 bf 0f 85 c0 29 10 b4 c0 66 5c b4 bd e2 3e 11 c0
       -4.158172 -5.6269727 -0.08806686 -2.269463
000160 60 12 9a bf 9f d2 12 3e f2 f7 92 c0 2d cd 58 bf
       -1.2036858 0.14338158 -4.592767 -0.84688073
000170 71 e5 43 be 64 cb f6 c0 e3 2a 69 3f 70 e7 ca be
       -0.19130494 -7.712328 0.91081065 -0.39629698
000180 b6 bf f8 bf 2b eb 8e bf 57 2e 33 be 53 46 10 c0
       -1.9433506 -1.1165518 -0.17498146 -2.2542922
000190 fa 5a 91 c0 f4 3e 00 c0 ce 19 87 c0 18 fc 31 bf
       -4.5423555 -2.0038424 -4.2219 -0.6952529
0001a0 45 98 c9 bf 3f 1c c8 c0 0f c7 b2 c0 a3 1d ab c0
       -1.5749594 -6.253448 -5.586799 -5.347368
0001b0 48 d5 5e 3e da e6 5e bf d7 be 96 be 94 1f bc bf
       0.21761048 -0.87071 -0.29442474 -1.4697137
0001c0 24 38 50 be 8c ed 83 c0 42 e5 1c c0 d6 0c 05 c1
       -0.20333916 -4.1227474 -2.4514928 -8.315634
0001d0 a4 b0 86 c0 3f 8b 7a c0 7a bb 40 bf 18 8d 7e 3e
       -4.2090626 -3.914749 -0.75286067 0.2485851
0001e0 ca d8 a6 bf 6f b6 9d 3e a6 5f c1 be e1 3e 09 c1
       -1.3034909 0.30803248 -0.37768286 -8.577851
0001f0 ca 69 81 be 63 00 53 c0 0e 41 1b c0 42 37 1b c0
       -0.25276023 -3.2968986 -2.4258456 -2.4252477
000200 2d c3 40 c1 5e 92 39 c1 4d ff 62 bf 02 16 3f 41
       -12.04765 -11.598234 -0.8867081 11.942873
000210 59 b3 1f c1 9a 24 35 41 56 51 3d 41 82 17 3f c1
       -9.981286 11.321436 11.832357 -11.943239
000220 71 82 36 c1 45 54 fc c0 6e d4 31 41 a4 34 3c c1
       -11.406846 -7.885287 11.114363 -11.762852
000230 b6 d4 41 c1 9b b5 35 c1 43 55 41 41 4b 11 12 c0
       -12.114431 -11.356837 12.083316 -2.2823055
000240 9a 9b 1e c1 cc 56 31 41 44 bb 36 41 dd 2e 2e c1
       -9.912989 11.083691 11.420719 -10.886441
000250 f3 af 37 41 90 57 24 41 d8 e3 41 c1 a4 2f d2 3f
       11.480456 10.271378 -12.118126 1.6420789
000260 f3 5b 43 c1 89 de 93 bd a9 7f 40 c1 74 e7 35 c1
       -12.209949 -0.072201796 -12.031167 -11.369007
000270 e5 70 05 c1 e1 20 42 41 8f e6 40 41 fc 98 36 41
       -8.340062 12.133027 12.056289 11.41235
000280 90 4b 11 c1 6d 7e 42 41 fc 61 3d c1 45 fd 3e 41
       -9.080948 12.155866 -11.836422 11.936833
000290 a5 84 fa c0 22 ed 13 c1 56 95 29 41 84 e5 0e bf
       -7.828692 -9.245394 10.598959 -0.55818963
0002a0 a5 10 3e 41 77 51 2c 41 c2 b0 3c 41 68 51 30 40
       11.879064 10.769889 11.793154 2.7549686
0002b0 45 73 2e 41 1b 12 3e 41 03 4d 43 41 89 9b 3f c1
       10.903142 11.87942 12.206302 -11.975472
0002c0 27 29 30 c1 76 39 3f 41 63 d5 2c 41 4b 48 38 41
       -11.010047 11.951529 10.802096 11.51765
0002d0 e3 f8 31 41 de 07 43 c1 de 43 41 41 f4 fe 28 3f
       11.123263 -12.189421 12.079069 0.6601403
0002e0 62 73 3b c1 d2 27 41 c1 22 31 43 41 c3 d8 3e c1
       -11.71567 -12.072222 12.199495 -11.92792
0002f0 51 83 40 c1 c8 78 43 c1 6d 0c 21 bf a3 45 3e 41
       -12.03206 -12.216988 -0.62909585 11.892001
000300 30 56 37 41 d9 ec 40 c1 e8 e0 2d 41 6b 39 41 c1
       11.458542 -12.057824 10.867409 -12.076518
000310 54 4e 42 41 71 d6 37 c1 58 ec 21 41 f2 a6 42 41
       12.144123 -11.489854 10.120201 12.165758
000320 3e 20 42 41 b8 7e 40 c1 7e 74 23 c1 b6 49 3f 41
       12.132872 -12.030937 -10.21594 11.955496
000330 16 9e 1f c1 72 46 42 41 fe 0d 19 c1 8d c8 12 c1
       -9.976095 12.142199 -9.565916 -9.173963
000340 2c 7e 42 41 0e 80 41 c1 a2 49 16 c1 ea 30 3e 41
       12.155804 -12.093763 -9.392977 11.886942
000350 6b 22 41 c1 83 4a 17 c1 ec 25 3d c1 0f 88 3f 41
       -12.070903 -9.455691 -11.821758 11.970717
000360 ce 2b 37 41 da 68 40 c1 ab 07 3c c1 7d 96 41 41
       11.4481945 -12.025599 -11.751872 12.09924
000370 07 ec 43 c1 64 9e 39 41 e3 b1 b7 be 44 67 41 41
       -12.245124 11.60117 -0.35877904 12.087711
000380 a9 1d 40 41 08 45 44 c1 fa 6d 64 bf 2a fb 40 c1
       12.007241 -12.266853 -0.8923031 -12.061319
000390 e3 18 42 c1 ab 8b 39 c1 41 02 3f c1 2d 1c 35 c1
       -12.131076 -11.596599 -11.93805 -11.319379
0003a0 7b 5b 3e 41 7d b8 2e 41 ce dc 43 c1 df bf 40 c1
       11.897334 10.920041 -12.241407 -12.046844
0003b0 ec 4a 3c 41 bc fd 41 41 69 8b c4 3f 36 73 0f c1
       11.768291 12.124447 1.5355045 -8.965628
0003c0 28 49 3f c1 ca c3 2a c1 8b f1 1e c1 73 2c 42 41
       -11.95536 -10.6728 -9.93397 12.135852
0003d0 7f 98 f9 c0 13 bc 3d 41 e3 de 23 c1 2f da 41 c1
       -7.7998652 11.858417 -10.241916 -12.1157675
0003e0 5d e4 40 c1 f0 4d 42 41 63 7c 41 41 a9 fc 3e 41
       -12.055753 12.144028 12.092868 11.936685
0003f0 86 b7 2d c1 18 20 2a 41 e5 34 2d 41 bd e0 2c c1
       -10.857306 10.632835 10.825414 -10.804868

features.2.bias f4 [128]
000000 11 d0 3f c1 03 7d 41 41 48 4b 42 41 09 d7 05 c1
       -11.988297 12.09302 12.143379 -8.364999
000010 c9 96 3d c1 66 1e 3f c1 9a 21 40 c1 bc ce 8d c0
       -11.849313 -11.9449215 -12.0082035 -4.431486
000020 13 f1 32 41 3a 2e 14 c1 5d ce 27 c1 e2 33 3f c1
       11.183856 -9.261286 -10.487882 -11.950167
000030 67 4c 41 41 7b 25 3c c1 46 8d 3c c1 b9 a6 40 c1
       12.081153 -11.7591505 -11.784491 -12.040704
000040 28 9e 3b c1 5f 6b 33 41 9c 70 3e c1 af 7c 37 41
       -11.726112 11.213714 -11.902493 11.46794
000050 0a 4e 40 41 55 ea 3e 41 e8 0c 3e c1 88 57 3d 41
       12.0190525 11.93221 -11.878151 11.83387
000060 a7 44 40 41 26 9b 3f c1 32 27 b6 c0 c2 d6 3e c1
       12.016761 -11.975378 -5.6922846 -11.927431
000070 d4 a2 40 c1 05 d9 3f c1 2a 9c 41 41 59 bc 1c 41
       -12.039753 -11.990483 12.100626 9.795983
000080 c0 7d 22 41 ae 6a 3b 41 92 cb 3f 41 c7 e2 40 41
       10.155701 11.713545 11.9872 12.055366
000090 3a 1e 3e 41 0a 5e 3e 41 4a 5d 12 c1 9c 89 3e c1
       11.88238 11.897959 -9.147776 -11.908596
0000a0 11 8c 23 c1 2c 2d 40 c1 07 33 36 c1 ea 20 40 41
       -10.221696 -12.011028 -11.387458 12.008036
0000b0 24 66 40 c1 82 6f 37 41 1d b2 40 c1 1e 9e 3d c1
       -12.024937 11.464724 -12.043485 -11.851103
0000c0 08 3f 3c 41 38 8c 41 c1 6f db 3e 41 df 69 41 41
       11.7653885 -12.096733 11.928573 12.088347
0000d0 68 f3 33 c1 df 2e 3b c1 76 42 48 c0 d6 34 bd c0
       -11.246925 -11.698943 -3.1290565 -5.9126997
0000e0 01 4c 40 c1 4f dd dd c0 b4 e5 3e c1 47 7e 0f c1
       -12.018556 -6.933265 -11.93108 -8.968329
0000f0 58 34 0c c1 eb a7 1b c1 e6 6f 37 c1 17 17 2c 41
       -8.762779 -9.728496 -11.464819 10.755637
000100 e1 8c 41 41 33 62 20 c1 eb 2d 34 c1 75 dc 3f 41
       12.096894 -10.023974 -11.26121 11.9913225
000110 b4 e9 b1 c0 6d 71 3e 41 ee 25 23 c1 76 85 6e c0
       -5.559778 11.902692 -10.19676 -3.7268958
000120 7e c6 3f c1 cd 55 41 41 11 1b 41 41 0c 54 41 41
       -11.98596 12.083447 12.069108 12.083019
000130 dd 1a 50 c0 37 dd 35 41 fd 2c 3f 41 f4 b7 1c c1
       -3.2516396 11.366508 11.948483 -9.79491
000140 52 31 3b 41 8a ee 3e 41 b9 f3 41 41 bd 62 3a c1
       11.699541 11.933237 12.122003 -11.649106
000150 17 d6 37 c0 4f 5f 2e c1 40 a8 3d 41 78 f3 3f c1
       -2.872442 -10.898269 11.853577 -11.996941
000160 ec 2b 3b 41 16 4f 40 41 0c e7 1c 41 48 60 41 41
       11.698223 12.019308 9.806408 12.086006
000170 1f bc 38 c1 9c a2 32 41 7a 0b 40 c1 d9 fc 3e 41
       -11.545928 11.1647 -12.002802 11.93673
000180 ef 7b 2f c1 b7 59 2e c1 b1 0e 40 c1 7d 7d 3e c1
       -10.967757 -10.896903 -12.003587 -11.905637
000190 15 49 40 41 96 ea 41 c1 0c cd 41 c1 f2 af ef c0
       12.017842 -12.119772 -12.11256 -7.4902277
0001a0 b4 a1 10 41 b3 22 2e c1 f7 b9 3e c1 1f 29 40 c1
       9.039478 -10.8834715 -11.920402 -12.010039
0001b0 59 7a 3e 41 31 77 3f 41 ac 31 2c 41 59 6b 40 c1
       11.90487 11.966599 10.762127 -12.026208
0001c0 3b 27 3c 41 3a bb 40 41 30 06 42 c1 a0 27 3b c1
       11.759578 12.04571 -12.126511 -11.697174
0001d0 37 11 3e 41 e2 4a 40 c1 73 1a 3e c1 e8 4d 3b c1
       11.879203 -12.018282 -11.881457 -11.70652
0001e0 02 76 40 41 1f e6 3d c1 e7 99 26 c1 28 9f 1e c1
       12.0288105 -11.868682 -10.412574 -9.9138565
0001f0 17 e7 3d c1 e1 d6 3b c1 81 f2 41 c1 75 34 71 c0
       -11.868918 -11.739961 -12.121705 -3.7688267

out.weight f4 [10, 128]
000000 78 be 14 bf 02 05 44 c1 82 da 3d c1 20 2b 0b be
       -0.5810313 -12.251223 -11.865847 -0.1359067
000010 cf 5d 3e c0 b7 1a 37 c1 1e a3 3e 41 01 6e 3c 40
       -2.9744756 -11.444022 11.914824 2.944214
000020 f2 03 39 c1 f2 2b 13 c1 97 a6 19 41 c6 a8 36 41
       -11.563463 -9.198229 9.603171 11.416204
000030 77 5e 43 c1 d7 57 32 41 a7 c7 ae 3f c9 31 36 41
       -12.210563 11.146445 1.3654679 11.387155
000040 bc 0c 0d c1 98 74 37 c1 f8 de 66 40 e8 52 24 c1
       -8.815609 -11.465965 3.607359 -10.270241
000050 cf bd 35 c1 1a 65 3e c1 b3 14 2a 41 7f 02 31 41
       -11.35884 -11.899683 10.6300535 11.063109
000060 c6 b3 2f 41 81 01 30 c1 59 5c a6 be ad b8 15 40
       10.98139 -11.000367 -0.3249233 2.3393967
000070 35 80 36 41 10 8c 23 c1 29 02 43 c1 20 81 0d c1
       11.406301 -10.221695 -12.188027 -8.844025
000080 71 ca 2c 41 f2 47 3f c1 28 9d 41 c1 46 ad 42 c1
       10.799424 -11.955065 -12.100868 -12.167303
000090 97 c8 41 c1 ab 5e 42 c1 a8 65 12 c1 de a0 0b 40
       -12.111472 -12.148112 -9.149818 2.1816936
0000a0 14 b0 2f 41 f5 63 3b 41 90 cb 0d c1 53 49 43 c1
       10.980488 11.711904 -8.862198 -12.205401
0000b0 ab 9c 3d c1 07 dd 2b 41 57 f3 3d c1 8c 52 3f c1
       -11.850749 10.741462 -11.871909 -11.957653
0000c0 8c 1e 23 c1 94 e2 37 41 c8 ec 3c c1 5f 37 42 c1
       -10.194958 11.492817 -11.807808 -12.138518
0000d0 e2 37 41 c1 72 44 26 41 09 e8 5c bc c8 0a 3d 41
       -12.076143 10.39171 -0.013483056 11.815132
0000e0 08 49 37 c1 9f 42 8c 40 94 7c c1 c0 30 9d 41 c1
       -11.45533 4.3831325 -6.0464573 -12.100876
0000f0 7c 56 10 41 4d 73 3b 41 55 28 41 c1 e7 09 3f c1
       9.021114 11.71565 -12.072347 -11.939918
000100 e2 bb 0d 41 08 7c 2b 41 54 b5 64 3f 8a 52 42 c1
       8.85837 10.717781 0.89339185 -12.145151
000110 94 bc 95 be 1f d0 42 c1 d2 b9 1c 41 39 d6 ce be
       -0.29245436 -12.175811 9.795366 -0.40397814
000120 0a e5 3e c1 ba b2 3a c1 3c 00 41 c1 f0 12 41 c1
       -11.930918 -11.668634 -12.062557 -12.067123
000130 68 bb ee bd bf e1 42 c1 78 40 42 c1 31 80 31 c1
       -0.11656839 -12.180114 -12.140739 -11.093797
000140 ae 43 0c c1 fb 68 40 c1 75 8a 36 41 4e ff 7f bf
       -8.766523 -12.02563 11.408803 -0.9999894
000150 e1 4d b0 be 4d 86 2d c1 ed 82 19 41 11 24 06 41
       -0.34434417 -10.845288 9.594464 8.383805
000160 74 1d 41 c1 ae 0e 40 c1 ad 99 17 41 a4 88 42 c1
       -12.069691 -12.003584 9.4750185 -12.15836
000170 4b bf 33 41 fa 7c 3f c1 ca 07 36 41 3c 4e 43 c1
       11.234202 -11.968012 11.376902 -12.2066
000180 03 51 40 c1 67 e2 39 41 12 93 39 41 b2 0c 40 41
       -12.019778 11.617774 11.598406 12.003099
000190 03 46 41 c1 c3 27 32 41 74 59 2b c1 f2 ec 3f 41
       -12.079593 11.134707 -10.709339 11.995348
0001a0 7b 1e 33 c1 57 d2 1f c1 eb e7 3a 41 69 39 32 41
       -11.1949415 -9.9888525 11.681621 11.139016
0001b0 fe a2 40 c1 ec 29 40 c1 a0 79 34 41 09 e5 3e 41
       -12.039793 -12.010235 11.279694 11.930917
0001c0 61 77 2f 41 1d 26 43 c1 06 3b 3b c1 13 9d 36 c1
       10.966645 -12.196805 -11.70191 -11.413348
0001d0 4f b3 41 c1 bc 7a 18 41 6d e9 41 41 5e b5 3f c1
       -12.1062765 9.529964 12.119489 -11.981779
0001e0 c7 d0 1a c1 cb f5 2e 41 83 e9 40 c1 8a af 21 41
       -9.675971 10.935008 -12.05701 10.105356
0001f0 d8 f0 71 40 6c 2c 3e c1 31 0f 2e 41 3e 69 48 bf
       3.780325 -11.885845 10.878709 -0.78285587
000200 e5 b2 26 41 fd eb 43 41 15 8d 24 c1 f0 86 00 bf
       10.418675 12.245114 -10.284444 -0.502059
000210 b4 69 a4 40 92 f0 27 41 06 07 04 c1 61 6d ed be
       5.137903 10.496233 -8.251715 -0.46372512
000220 c2 41 42 c1 57 66 41 c1 50 37 2a 41 26 c1 3c 41
       -12.141054 -12.087485 10.638504 11.797155
000230 39 a2 3f c1 cd 04 40 c1 e2 2d ce bf 71 3c 41 c1
       -11.977105 -12.001172 -1.6107752 -12.077256
000240 62 65 43 c1 11 b1 41 41 65 8a cd 40 43 2a 23 41
       -12.212252 12.105729 6.423144 10.197818
000250 81 bd 1f c1 73 75 40 41 04 2b 04 40 7c dc 21 c1
       -9.983766 12.028674 2.0651255 -10.116329
000260 5e 51 22 c1 d2 a5 3d 41 03 06 36 40 11 72 4a 40
       -10.144865 11.852983 2.844117 3.163212
000270 05 b2 3e c1 a3 54 40 c1 20 fc 35 41 12 31 40 c1
       -11.918462 -12.020663 11.374054 -12.01198
000280 d8 2f 3f c1 3a ef 2a 41 b5 c0 41 41 38 09 1f c1
       -11.949181 10.683405 12.109548 -9.939751
000290 29 eb 36 c1 e2 a2 3e 41 a8 74 41 c1 9e f0 dc c0
       -11.432412 11.914766 -12.090981 -6.904372
0002a0 20 ba 44 c1 2c be 41 c1 5c be 2a c1 db 83 1d c1
       -12.295441 -12.108929 -10.671474 -9.844691
0002b0 a4 82 42 c1 3d 32 3c c1 40 cc 40 c1 15 67 42 c1
       -12.156895 -11.762265 -12.049866 -12.1501665
0002c0 7e ea 3a c1 a4 88 40 c1 d7 10 43 c1 01 fa 2f 41
       -11.682249 -12.03336 -12.191611 10.998536
0002d0 37 59 42 c1 65 52 43 c1 c6 75 3a bc 4d 1f 33 41
       -12.146781 -12.207616 -0.011380618 11.195142
0002e0 99 ba 41 c1 8a 39 f0 be 47 25 3d 41 d7 5c 3c c1
       -12.108056 -0.469189 11.821601 -11.772666
0002f0 be 04 25 c1 60 a5 41 c1 44 83 2b c1 d3 0f 40 c1
       -10.313658 -12.102875 -10.719547 -12.003863
000300 2a f4 23 c1 97 ea 3e c1 a2 cc 3e 41 87 50 42 c1
       -10.24711 -11.932273 11.924959 -12.14466
000310 9a 31 f8 3f 1c 1a 42 41 94 80 29 41 9c 11 54 be
       1.9390137 12.131374 10.593891 -0.20709842
000320 54 63 3d 41 3e a7 3f c1 7e e8 23 c1 f6 80 22 c1
       11.83675 -11.978331 -10.244261 -10.156485
000330 2a 9d 75 3e c8 31 40 c1 c0 a2 42 41 fe 9e 41 c1
       0.23985735 -12.012154 12.164734 -12.101316
000340 b3 93 43 c1 34 a7 32 41 cd 3c 42 41 0d d7 9d 40
       -12.223559 11.165821 12.139844 4.9325013
000350 a5 1b 30 be 34 d8 c5 be 06 c4 41 41 16 47 6e c0
       -0.17198046 -0.38641512 12.110357 -3.7230887
000360 20 ca 24 c1 27 de 43 41 22 e6 34 c1 98 92 25 c1
       -10.299347 12.241736 -11.306185 -10.3482895
000370 88 1b 3f c1 92 88 3e c1 1a 6b 3d c1 ce 7b 2a 41
       -11.9442215 -11.908342 -11.838648 10.655226
000380 aa ad 22 c1 20 7b 40 c1 65 9b 41 c1 8d 83 41 c1
       -10.167398 -12.03006 -12.100438 -12.094617
000390 96 cc 43 41 0c f1 41 c1 fe 69 3f c1 ad a4 39 c1
       12.237448 -12.121349 -11.963377 -11.602704
0003a0 2d 0b 3c c1 f0 7a 3f c1 8f c4 3e 41 09 b4 41 c1
       -11.752728 -11.967514 11.922988 -12.106454
0003b0 a2 b2 41 c1 ea 4e 43 41 cf f3 43 c1 74 60 3e c1
       -12.106112 12.206766 -12.247024 -11.898548
0003c0 92 c3 29 41 3c d1 1f c1 8b 77 42 c1 6d 38 33 41
       10.610247 -9.988583 -12.154185 11.201276
0003d0 1c 67 43 c1 43 23 b8 40 d1 19 3e 41 a8 bb 28 41
       -12.212673 5.7543044 11.881303 10.5458145
0003e0 35 ec 39 41 7b 72 3e c1 7c 40 3f 41 b4 a6 3d c1
       11.620168 -11.902949 11.953243 -11.853199
0003f0 ef 68 57 bf 4d 5d 41 c1 35 d1 41 c1 25 f1 a4 be
       -0.8414449 -12.0852785 -12.113576 -0.3221523

out.bias f4 [10]
000000 23 0a 41 c1 c9 2a 41 41 8c 43 3f 41 2a 13 3f c1
       -12.064975 12.072946 11.953991 -11.942179
000010 cb 83 3d 41 a1 af 41 c1 8b b8 3e 41 c8 5e 3e 41
       11.844676 -12.105378 11.920054 11.89814
000020 df 7e 3f c1 d8 4a 3a c1
       -11.968474 -11.643272
